data.pth (torch, 5313 bytes, 6 tensors)

l1.weight f4 [8, 54]
00000000: c4de 753e 80fc 073f 4fe2 de3e d62b c43e
00000010: 3a0f 9f3e c0d1 25bf 5d32 dd3e d63a d83e
00000020: 2123 393e ff4d cc3e 833a 8a3e 4e38 5f3c
00000030: 64f7 3f3e b1ed 47be 793c e03e 0cb1 e3bd
00000040: 7007 973e 7785 1bbf 63c8 c0be 8aaf 2f3f
00000050: 3a3b bd3e a5f6 3a3f 0a0f 313f b246 833e
00000060: ff51 8e3e 11f8 9c3e d0de 90be 4baf cf3e
00000070: 8098 17be 06ca f93e 121f dbbe f120 56be
00000080: 7135 b63d ae25 293f 7d09 013f 14bc 25bd
00000090: 6e17 babe 2639 7d3e 06bc f83e 9710 0b3f
000000a0: 21e7 94be b6b0 fcbe c1c7 d63d a489 f53e
000000b0: 4256 033f 6e61 0e3f 5186 223f 23be c13e
000000c0: 84ca 983e f5ce ecbe cf79 6f3d 8474 9bbe
000000d0: dbfe d13e cdd1 023e cb85 5cbd a1cf c7bd
000000e0: 35ac 833e a07b 0c3d 099d b03d 0ffb 073f
000000f0: 100d 9e3e cfe5 6a3e 9423 583e 4808 3f3e
00000100: 8d0a 86ba a831 283f ab43 d13e 6630 163f
00000110: 893a ddbc fd15 113f d8d1 02be 749b 453f
00000120: 0ddf d73e e5ea 08be 8053 82be 686a 11bd
00000130: ed21 08be 277d 543e e018 0a3f 588e 703d
00000140: 1d09 c23e 1b42 f7bc 930c a93e a6fa 4fbe
00000150: 4a8f 0b3f c235 2c3f 9eac c03c 219b aa3e
00000160: ecb1 313e 3e25 d13e 9f7b b63e 57a4 823e
00000170: de59 1f3e 60d0 4a3e b70e f33e 8141 193f
00000180: b905 073f c5fa deba 5d81 1e3f 59f4 0f3e
00000190: db5e 24bf bf4e 9dbe cd2b 633e 388e 253f
000001a0: 16ca f43e c9fa d53e 340f 4d3e 848e 2d3e
000001b0: 0f67 0b3f 6fc6 633d fa64 a1be 5351 dc3e
000001c0: 3b2d f13d 94d7 d43e 2a4f 12be 27f6 70bd
000001d0: 3172 3cbf 5876 28be ee1f be3e 096a 55be
000001e0: 2430 08bf f31c b9be 2419 52be de90 8cbd
000001f0: 11d9 183f 79cf f93e 551a e4bd 1e21 263f
00000200: 6fc2 903e 79ee 063f 2e41 1b3f 243e 863e
00000210: 83d2 84be 5953 d83e c888 7fbe b344 c0be
00000220: df6b aebe 9dd7 8abe fc89 b23e 2edb 86be
00000230: 3409 b33e f13a 8dbe 7be7 b4be 11bd c7bd
00000240: e8db 91be 6e38 01bf 31b9 f8bd 8719 9bbe
00000250: 1ef7 c43e a881 0bbe 644f 55be dec0 b4bd
00000260: e191 bebe efd9 97be 527e a63e 9e56 623e
00000270: 5f39 a03e 46ac a4be 88d3 b4bd 03c1 2bbe
00000280: 30fc eebd 1f0b 383e d22f 1fbe dcd1 85be
00000290: fa2e 133f e235 ee3e 660e 0a3f 283d d7be
000002a0: 4b97 c43e 28ac cc3e e368 0f3f b804 e13e
000002b0: d004 fe3e f971 f6bd 7ed8 5b3e a94d 8abe
000002c0: 9926 01be 782b 43be 6bf6 1e3f ae39 d7be
000002d0: 4853 6cbd 4bee 1c3f 75f4 bebd f90a 3f3f
000002e0: c558 4b3f 1b8b 033e e769 3a3e 6352 d53e
000002f0: 5ba4 e9bb ad62 b2be b54e 90ba 5b5b bbbe
00000300: 9a22 e9be 96e1 b3be 76dc d2bd 0d76 f73e
00000310: 7237 3ebd 720b 83be 41ae 93bd bb85 d43e
00000320: 7cba e13e aeff 823e 3880 9cbe 937b 01bd
00000330: d073 f5bd b03d 38be d89a 453e ac6e 8bbd
00000340: a192 febe 3206 cebd 179c 6a3e a630 08be
00000350: 9bcc 6ebe b2a4 c7bd f4b5 dc3e e26a ae3e
00000360: 5799 1b3f eb00 3c3f fe13 c0bd 460e 893d
00000370: 733f 373e 86d2 97be c129 3cbd 8cc2 13bd
00000380: 475f 43be 2ec4 b1bc a413 2b3e 02ff d03e
00000390: 0c40 5fbd ab99 d33e 521f 183f df48 f43e
000003a0: 3390 9e3c ed37 7cbe 042a ddbe 8e78 13be
000003b0: 1d2b 083f 9477 433c 12b7 55be f5c9 983e
000003c0: 9ced 89bd 162b 983d fe05 4cbe 780f 3b3f
000003d0: 0aa5 33be f852 2f3f 214e 56be c6f8 bd3e
000003e0: 185b 5e3e abbb b4bd c3e4 0f3f 182c d93e
000003f0: 7301 15be 5c32 d3bc 76aa 97bd 18f9 583b
0.2401076 0.5311966 0.43532035 0.38314694 0.31066304 -0.6477318 0.43202487 0.42232388
0.18079807 0.39903256 0.26997766 0.013624264 0.18746716 -0.19524266 0.43796137 -0.111177534
0.29497862 -0.60750526 -0.37652883 0.68627226 0.3695925 0.730326 0.6916357 0.25639874
0.27796933 0.3065801 -0.28294992 0.40563425 -0.14804268 0.48786944 -0.42797142 -0.20911004
0.08896912 0.6607312 0.504051 -0.04046257 -0.36346 0.24728832 0.4858095 0.5432219
-0.29082587 -0.4935357 0.10487319 0.47956574 0.51303494 0.55617416 0.634862 0.37840375
0.29842007 -0.46251646 0.058465775 -0.30362332 0.41014752 0.12775345 -0.053838532 -0.09756399
0.2571732 0.034297585 0.08623702 0.5311746 0.3086934 0.22939228 0.21107322 0.18655503
-0.0010226533 0.6570077 0.4087194 0.586676 -0.02700545 0.56674176 -0.12775362 0.7719033
0.42162362 -0.13370855 -0.2545433 -0.035501868 -0.13294192 0.20750867 0.53944206 0.0587295
0.37897578 -0.030182889 0.33017406 -0.20310459 0.54515517 0.6726953 0.02351981 0.3332148
0.17353028 0.40848726 0.3564119 0.25516006 0.15561625 0.19806051 0.47472164 0.59865576
0.5274311 -0.0017011991 0.6191614 0.14058055 -0.6420724 -0.3072414 0.22184677 0.64670134
0.4781043 0.41792896 0.20025331 0.16948897 0.5445413 0.055609163 -0.31522352 0.43030795
0.11776205 0.41570723 -0.14288011 -0.0588285 -0.7361174 -0.16451395 0.37133735 -0.2084123
-0.53198457 -0.361549 -0.20517403 -0.06863569 0.5970622 0.48791102 -0.11137835 0.6489428
0.2827334 0.5270763 0.6064633 0.26219285 -0.25941858 0.4225109 -0.24954522 -0.37552413
-0.34066674 -0.27117625 0.348709 -0.26339096 0.3496796 -0.2758403 -0.35332856 -0.097528584
-0.28488088 -0.5047673 -0.121446975 -0.30292913 0.38469785 -0.13623679 -0.20831066 -0.08825849
-0.37220672 -0.29658458 0.3251825 0.22103354 0.3129377 -0.32162684 -0.08829409 -0.16772847
-0.11669195 0.17972992 -0.15545586 -0.26136672 0.57493556 0.46525484 0.5392822 -0.42038846
0.38396677 0.39975095 0.5601942 0.43948913 0.49613047 -0.12033457 0.21469304 -0.27012375
-0.1261238 -0.19059551 0.62094754 -0.42036194 -0.05769661 0.61301106 -0.0932397 0.7462612
0.79432327 0.12846033 0.18204461 0.4166442 -0.0071301884 -0.3484091 -0.0011009785 -0.36593136
-0.4553421 -0.35133046 -0.10295956 0.48332253 -0.046439596 -0.2559467 -0.07210971 0.41508278
0.4408759 0.25585693 -0.30566573 -0.03161199 -0.1198498 -0.17992282 0.1929735 -0.06808218
-0.49721244 -0.100597754 0.22911106 -0.13299808 -0.23320238 -0.0974821 0.4310757 0.3406592
0.60780853 0.734389 -0.09378813 0.066921756 0.17895298 -0.29652804 -0.045938257 -0.036074206
-0.19079314 -0.021699991 0.16706711 0.40819556 -0.05450444 0.41328177 0.5942279 0.47711846
0.019355869 -0.24630709 -0.43196118 -0.14401457 0.53190786 0.011930365 -0.20870617 0.2984158
-0.067347735 0.07430093 -0.19924161 0.7307048 -0.17543426 0.68485975 -0.20928241 0.37103862
0.21714437 -0.08824857 0.5620844 0.42416453 -0.14551334 -0.02578085 -0.0740556 0.0033107456

l1.bias f4 [8]
00000000: 97df 253f 775f 243f 1c82 713f 943c d73e
00000010: d8b0 3e3f 7295 c43e 6815 eb3e e93d 203f
0.64794296 0.6420817 0.94339156 0.42038405 0.7448859 0.38395268 0.4591477 0.6259447

l2.weight f4 [8, 8]
00000000: 3880 0b3e 01aa 6d3f b726 313f bd60 653f
00000010: f370 4cbf daa2 dbbd 1038 133f 5ec0 b23f
00000020: ca4e 8c3f 58a4 4abf 48f2 153f 23bc 6dbe
00000030: f110 883f d12f 253f 2756 a3be 69df 81bf
00000040: c17e af3f f5aa 2fbf dff0 3a3f c964 843f
00000050: 1020 263f a4da 6b3f 1f83 e6be f543 b4be
00000060: 8dca 6cbe e122 7a3f 3801 793d 24d6 a3bf
00000070: ed70 1b3f 8f7f 83bf 8e0e 243f a7f6 1e3f
00000080: ea1f 673f 0198 2abc 48e3 1ebf 2991 393f
00000090: cd62 f63e 5fe0 4cbf c4a8 ce3e 1856 0b3e
000000a0: 9984 093f 09eb bbbe 6247 af3f 5ec9 cf3e
000000b0: b689 0d3f 25d5 cb3e fb4b f6be 6c3d 223e
000000c0: 0b90 64be 336f ee3e cb2f 8fbf c05f 293f
000000d0: 220b 80bf de7b 613f 98f5 4d3f ee18 353f
000000e0: b19a 193f 7651 563f 55b7 7dbf b99a c83e
000000f0: 8d5a 1f3e cc1f e93e 0ef4 783e 56aa 2abe
0.1362313 0.9283753 0.691997 0.89600736 -0.79859847 -0.10724421 0.5750742 1.3964956
1.0961545 -0.7915702 0.58572817 -0.232163 1.063017 0.6452609 -0.31901667 -1.0146304
1.3710557 -0.68620235 0.7302379 1.0343257 0.64892673 0.92130494 -0.45021912 -0.35208097
-0.23124142 0.9770947 0.060792178 -1.2799726 0.60719186 -1.0273303 0.6408471 0.6209511
0.9028307 -0.010412217 -0.62065554 0.7248712 0.48122254 -0.80029863 0.40363133 0.13607061
0.5371795 -0.36702755 1.3693659 0.40583318 0.55288255 0.39811054 -0.48104843 0.15843743
-0.22320573 0.46569213 -1.118646 0.6616173 -1.0003397 0.8807963 0.8045287 0.70741165
0.60001665 0.8371805 -0.9910787 0.39180544 0.15561886 0.45532072 0.2431185 -0.1666654

l2.bias f4 [8]
00000000: 63aa bc3e 9887 d73e 8447 dc3e e5fc 4d3f
00000010: 290a 943d ff8b 9d3e 6627 0abd e58d 7a3d
0.36848745 0.42095637 0.43023312 0.8046401 0.072285004 0.3077087 -0.03372898 0.061170477

l3.weight f4 [7, 8]
00000000: 13a3 c9be aed0 23bf 067f 38bf 95db 463f
00000010: bb52 553e e46c 9dbf 8668 14bf 6f30 ee3e
00000020: 5d23 b1bf 3869 da3e 91fe c23d 267f 393e
00000030: 67d3 3f3f 347f 52be e71d 0cbf 2f72 95be
00000040: 9f2c 3c3f 587e 88bf f4a7 39bf bd4f 443f
00000050: e187 bfbf b6e2 7f3e cf2e 46bf 290b b9bf
00000060: e9fe 163f 98aa 30be aaa4 fc3e 078e 4cbf
00000070: 2d61 153e a174 c73e 500c 9ebf 1c7c 8cbf
00000080: dd9c e63e b7bc d0be fe2b 92bf 92a1 1abf
00000090: 5e33 9ebf 3535 9bbf a7b5 4e3f 0391 823e
000000a0: c8e0 e73d 7b1e 6cbf c900 3b3d 6b1c 89bf
000000b0: f868 393f 742b 20bf 11ca 8a3e 4ee8 9d3e
000000c0: 3c9b a6bf aed0 293f 5d8b 2c3f 9718 85bf
000000d0: 4f74 90bf dd1b 103f bfc7 8fbe 2a9c 24bf
-0.39382228 -0.63990295 -0.7206882 0.77678806 0.2083234 -1.2298856 -0.5797199 0.46521327
-1.3838917 0.426584 0.09521211 0.1811491 0.7493195 -0.20556337 -0.5473313 -0.29188678
0.73505586 -1.0663557 -0.725219 0.7668417 -1.4963342 0.24988827 -0.77415174 -1.4456531
0.5898271 -0.17252576 0.4934438 -0.79904217 0.14587851 0.38956168 -1.2347507 -1.0975375
0.45041552 -0.40768978 -1.1419675 -0.60402787 -1.2359426 -1.2125612 0.8074593 0.2550126
0.113221705 -0.9223401 0.045655046 -1.0711797 0.72425795 -0.62566304 0.2710729 0.30841297
-1.3016124 0.66334045 0.6740015 -1.0398129 -1.1285495 0.56292516 -0.28082082 -0.6430079

l3.bias f4 [7]
00000000: f634 6abe 6e13 033e cdea 9e3c 7c4c 12be
00000010: c1dc 01be 3193 a6be e98c 3c3e
-0.22871765 0.1280038 0.019399071 -0.14286989 -0.12681867 -0.32534173 0.18413128
